app/assets/model.tflite (tflite, 149220 bytes, 10 tensors)

sequential/conv2d/Relu;sequential/conv2d/BiasAdd;sequential/conv2d_2/Conv2D;sequential/conv2d/Conv2D;sequential/conv2d/BiasAdd/ReadVariableOp f4 [32, 3, 3, 3]
000000 d0 3c ed b9 02 f0 1a 3a 4d 6e 46 ba 4f 79 ca 39
       -0.0004524947 0.0005910398 -0.00075695367 0.00038618824
000010 e3 88 e8 38 48 8c 49 ba 70 8e 1d 39 12 6d 27 b9
       0.00011088119 -0.0007688445 0.00015025749 -0.00015966993
000020 32 cd 11 39 37 18 a2 b9 b9 9c 27 b9 df 0d 78 b8
       0.00013904719 -0.0003091709 -0.00015984745 -5.9140726e-05
000030 7e d4 64 39 9f 15 33 b9 ad e5 a4 39 fd 4d 56 b9
       0.00021822934 -0.00017078825 0.0003145164 -0.00020437683
000040 29 74 03 39 9f 52 a8 b8 cc 4e 03 3a 66 e2 09 3a
       0.00012536407 -8.0262536e-05 0.0005008995 0.0005259871
000050 cc 95 dd 39 2a 47 06 b9 cc 30 a5 b9 3c 82 d6 b8
       0.00042264012 -0.00012805747 -0.0003150761 -0.00010228573
000060 07 60 90 b9 cd 26 0c 3a 94 10 5c 39 91 38 76 b9
       -0.00027537366 0.0005346358 0.00020987011 -0.00023481461
000070 de be 1e 39 ce 98 87 39 fb 2c b4 38 3d eb 11 3a
       0.00015139158 0.00025863055 8.591447e-05 0.0005566364
000080 27 18 f8 b8 3a c7 05 39 1d c4 02 3a 1c 1f 7b 39
       -0.0001183006 0.00012758086 0.00049883296 0.00023948814
000090 41 76 28 38 f4 c2 8c b9 85 b8 7a 38 c6 b6 01 ba
       4.0164454e-05 -0.00026848132 5.9776492e-05 -0.0004948195
0000a0 06 ad 01 3a 03 b8 71 b9 a0 ef 86 b9 15 91 0b 37
       0.0004946742 -0.00023052101 -0.00025737006 8.318825e-06
0000b0 0f d3 5d 37 3c c3 af b9 a2 51 d6 39 cf e4 bd 38
       1.3221767e-05 -0.00033524062 0.00040878082 9.054841e-05
0000c0 d8 d6 95 b9 ea fe 34 38 25 b3 c6 b9 ee 0b ba b9
       -0.00028579566 4.315275e-05 -0.00037898976 -0.00035485573
0000d0 f0 3d e8 38 45 da e2 b9 f6 62 e6 b9 1d 88 d0 b9
       0.00011074159 -0.00043268703 -0.0004394275 -0.00039774264
0000e0 6d 73 bb b8 8e 0e a7 b9 4f 9a dc b9 e5 e9 a2 39
       -8.9383546e-05 -0.00031863566 -0.0004207664 0.00031073313
0000f0 63 31 aa 39 1b b5 fb b9 62 9f 38 b9 98 6e b4 b9
       0.00032461723 -0.00048009385 -0.00017606982 -0.00034414674
000100 05 f6 b2 37 8b 1a 63 39 ce db c9 39 3d 49 da b9
       2.1333815e-05 0.00021658295 0.00038501475 -0.00041634767
000110 c2 60 01 ba 26 dc bf b9 c9 56 5f b9 af 66 57 39
       -0.00049353775 -0.00036594382 -0.00021299267 0.0002054225
000120 77 32 02 3a 0d ee 09 3a a5 47 25 3a 01 02 53 39
       0.00049666263 0.00052616076 0.00063049264 0.00020123275
000130 99 55 96 38 a3 63 ef 39 3e 9c ad b8 1e 2f 51 b9
       7.168501e-05 0.00045659867 -8.278385e-05 -0.00019949346
000140 06 87 9c b9 40 cb 26 b9 4d 95 be 39 f8 85 03 ba
       -0.0002985524 -0.0001590671 0.00036350862 -0.00050172163
000150 67 cd 8f b8 a3 58 09 b9 88 8f d4 b9 8e 2a 0f ba
       -6.8570305e-05 -0.00013098358 -0.0004054273 -0.0005461358
000160 a5 7e ab 37 fd fe ba 38 db 2b 9a 39 98 ce 55 b9
       2.0443762e-05 8.9166664e-05 0.00029405844 -0.00020390225
000170 c4 ec 63 38 0b 95 73 38 2a 69 6a b9 9f 39 96 b9
       5.4341523e-05 5.807452e-05 -0.00022355156 -0.0002865316
000180 c8 56 3d b9 75 fa ab 39 02 62 0b b9 56 92 12 3a
       -0.00018056773 0.00032802267 -0.00013292584 0.0005591264
000190 39 bb c0 b9 1d 70 15 38 84 51 48 b8 bb 66 0c 3a
       -0.00036760585 3.5628782e-05 -4.7759633e-05 0.0005355884
0001a0 ba f9 0b 3a 13 1b 01 37 ba b8 89 39 3d 04 22 b9
       0.00053396414 7.695303e-06 0.00026268308 -0.00015451103
0001b0 e0 b5 cb 39 54 c2 5e 39 00 1c 12 3a 17 a7 82 b9
       0.00038854685 0.00021243963 0.00055736303 -0.00024920024
0001c0 0f 34 bb b9 06 87 d5 39 d1 24 83 b9 5c 38 c2 38
       -0.00035706206 0.00040727126 -0.00025013697 9.2611386e-05
0001d0 22 48 9f 39 a6 39 11 b9 9b 5e fb b8 12 31 ed 38
       0.00030380586 -0.00013849753 -0.00011986234 0.00011310181
0001e0 2b 44 c6 b9 69 80 a1 b9 3d 32 be b9 b1 d8 80 37
       -0.00037816292 -0.00030803986 -0.00036277054 1.5359694e-05
0001f0 b9 ed 73 b9 13 e0 08 3a f6 5c 92 b8 ab 00 48 b9
       -0.00023262844 0.0005221378 -6.979138e-05 -0.00019073735
000200 4e 79 0f 38 f8 37 ff b9 5b 97 e7 b9 62 1f 39 b8
       3.420683e-05 -0.0004867909 -0.00044172522 -4.4136665e-05
000210 b6 06 7d 39 c2 cd db 39 95 e3 b9 39 04 1f fb b9
       0.0002413046 0.00041924237 0.00035455512 -0.0004789756
000220 2a fa 37 b9 6c 99 d8 b9 31 89 01 b8 70 9e 4d 38
       -0.00017545433 -0.0004131304 -3.0883766e-05 4.9023365e-05
000230 a6 e4 5e 39 e4 df a9 b9 7f bb dd 39 55 94 05 b9
       0.00021256748 -0.00032401003 0.000422921 -0.00012739126
000240 b0 af 57 ba 7b 67 24 ba 17 60 fb b7 cc c0 08 ba
       -0.00082277786 -0.00062715233 -2.9966277e-05 -0.0005216717
000250 19 8f cf b9 3d 21 0e ba de e6 2b b9 c9 fe e0 b9
       -0.00039588733 -0.0005421823 -0.00016393836 -0.0004291444
000260 af e6 9e b9 b1 78 25 ba f6 ac 0e b9 19 3f 05 3a
       -0.0003030798 -0.0006312235 -0.00013606608 0.00050829496
000270 6e d4 dc 37 05 29 2d ba 6e 1f a2 37 16 55 62 39
       2.6324964e-05 -0.00066055387 1.932654e-05 0.00021584737
000280 58 0c 08 3a 25 47 1e 38 0d db 3d b9 5f ef f0 39
       0.00051898276 3.7736394e-05 -0.00018106047 0.00045954713
000290 f4 97 1c 37 f0 94 99 39 73 1d a9 39 7d 65 05 3a
       9.333704e-06 0.000292934 0.00032256133 0.00050886703
0002a0 63 bd 48 39 db 5f b1 b9 23 c5 c1 b9 b2 49 0c 3a
       0.00019144038 -0.0003383149 -0.00036958707 0.00053515576
0002b0 56 15 f0 39 97 ab d9 37 96 6a 61 39 54 94 c7 b9
       0.00045792264 2.5948319e-05 0.00021497378 -0.0003806675
0002c0 90 49 00 3a 5e 37 24 39 bc da a1 b9 bc 45 ab b9
       0.0004893774 0.00015660885 -0.00030871283 -0.00032667618
0002d0 71 07 1e 3a 0b 81 09 ba 94 2d d2 b8 cc a6 fb 39
       0.00060283305 -0.0005245364 -0.0001002207 0.00047998724
0002e0 0d 35 17 ba d3 9d 06 3a fc ee 4b 39 fd 07 18 b9
       -0.0005768098 0.0005135212 0.00019448617 -0.00014498825
0002f0 0c 0c d8 39 69 dd 09 3a d6 c4 16 39 bf 65 06 39
       0.00041207706 0.0005259128 0.00014378442 0.00012817139
000300 13 7e cc b9 b5 5e 40 b9 66 3d 09 3a 53 25 e9 38
       -0.00039003845 -0.00018345828 0.00052352843 0.00011117258
000310 8f 50 13 39 2c 6a c1 39 7b be a4 38 9a a3 b3 b9
       0.00014049023 0.00036890933 7.855609e-05 -0.00034263433
000320 6c b2 e3 36 6c d0 f8 b9 cf 7b 51 39 51 09 43 b9
       6.785898e-06 -0.00047457532 0.00019977916 -0.0001860012
000330 90 85 dd b9 5f e7 af 39 b1 3c c9 b9 27 6e 0c ba
       -0.00042251917 0.00033550986 -0.00038382926 -0.000535699
000340 f4 b2 bd 39 0d 3b 24 3a d9 39 03 ba b2 be 7c 39
       0.0003618222 0.0006264903 -0.00050058734 0.00024103632
000350 f2 57 8e b7 f5 86 d0 38 69 5e d7 b9 61 41 c8 b9
       -1.6968672e-05 9.9433506e-05 -0.00041078337 -0.00038195684
000360 9b 6c e5 39 10 06 b4 39 6d 64 90 38 3d 3e ee 38
       0.000437592 0.00034336792 6.885161e-05 0.00011360317
000370 de 82 ca 38 36 3b fe b8 1a 50 0a ba e6 92 7e b9
       9.6564865e-05 -0.00012122693 -0.0005276218 -0.00024278052
000380 67 fa 85 b9 15 d2 aa b9 66 bb 47 39 6d 3d 8d b7
       -0.000255543 -0.0003258145 0.0001904793 -1.6837113e-05
000390 f3 25 f7 b9 03 7f b8 b9 6d a7 c4 39 bc 75 82 b9
       -0.00047139786 -0.00035189846 0.00037508775 -0.0002488325
0003a0 7a e7 00 ba ad 13 de 38 fd 2d 9f 39 1d 1d cf b8
       -0.0004917305 0.0001058945 0.00030361107 -9.875952e-05
0003b0 a4 ad b1 b8 bc 44 14 b9 eb 6e d9 38 7a f2 22 3a
       -8.472361e-05 -0.00014139985 0.000103680264 0.00062159414
0003c0 be af 8a 39 64 33 08 ba 12 01 6d 39 f2 ba b6 b9
       0.0002645235 -0.0005195646 0.0002260248 -0.0003485303
0003d0 ed eb f2 39 a5 8b b5 39 f9 c4 22 39 9a fb 25 b9
       0.00046333615 0.00034627054 0.00015522902 -0.00015829355
0003e0 45 62 e4 39 31 f1 e2 b9 75 12 00 39 f2 7f d2 39
       0.00043560765 -0.0004328578 0.00012213907 0.00040149648
0003f0 98 20 c5 b8 8e 60 c0 b9 01 4a 25 39 b9 7c 87 38
       -9.399763e-05 -0.00036693033 0.00015763195 6.460533e-05

sequential/conv2d/BiasAdd/ReadVariableOp f4 [32]
000000 87 cb b8 bc d8 54 51 3d 34 2a 91 3d dd 10 22 3d
       -0.022557987 0.051106304 0.07088128 0.039566863
000010 88 74 19 3c 17 77 ff 3d b9 44 80 bd 1a 8d 5b 3d
       0.009366162 0.124738865 -0.06263108 0.05360136
000020 da 36 48 3d 94 d7 1a bd 17 b4 45 3d 0c 05 80 3b
       0.048880436 -0.037803248 0.04826745 0.0039068516
000030 b4 7c 24 3d b2 f5 4e 3d 04 6d 9c bd 43 8b 4f bd
       0.04015799 0.050527282 -0.076379806 -0.05066992
000040 80 83 25 bd ec cc 9b 3c 76 c1 1d 3d 33 04 67 bd
       -0.04040861 0.019018613 0.038514577 -0.05640049
000050 00 52 19 3d f7 8a 34 3d 44 66 ea 3c 32 e0 75 3c
       0.037431717 0.04407784 0.028613217 0.015007066
000060 40 d7 a0 bc 3e 2a 4b 3d 0b 0c 96 bc e2 69 71 3c
       -0.01963389 0.049600832 -0.01831629 0.014734717
000070 e7 44 de 3c 3a ac 48 3d 71 9d 2c 3d 35 9d 16 3d
       0.027132465 0.048992373 0.042142335 0.036771018

sequential/conv2d_1/BiasAdd/ReadVariableOp f4 [32]
000000 81 35 ad 3c e4 6d 34 bc 81 bf d0 3c 67 9c b3 bc
       0.021143677 -0.011012528 0.025481941 -0.021925164
000010 28 6d 8c bc 88 16 3c bd 9a 93 d7 bc ea 6e c4 bb
       -0.017141894 -0.045919925 -0.0263155 -0.0059946673
000020 6c dd ff bc 2d c7 d1 3c 0e a4 05 3d e0 7a 03 3c
       -0.031233512 0.02560767 0.032627158 0.008024901
000030 71 43 6e 3c 74 8c a6 3c 4f 5a ad 3d 44 17 a2 3c
       0.0145424465 0.020330645 0.084644906 0.019786485
000040 4e 13 1e 3c 67 18 a8 3c a1 1c 98 ba ce 5c 9b 3c
       0.009648157 0.020519448 -0.0011605212 0.018965151
000050 5e b1 2e bd 86 77 a2 bc 16 dc 97 3c 76 e5 2c bd
       -0.04264962 -0.019832384 0.018537562 -0.04221102
000060 8b b6 04 3d 87 b2 bf 3c 77 e6 9e 3b 8e d2 40 3c
       0.03240065 0.023400558 0.004849251 0.01176895
000070 7a 72 c6 3c 7e f9 ef 3c bf 49 8f 3b e1 76 26 bd
       0.024224509 0.029293772 0.004372805 -0.040640716

sequential/conv2d_2/BiasAdd/ReadVariableOp f4 [32]
000000 e9 99 99 bc 91 c9 36 bc 3e 56 fa 3a 3c 53 00 bd
       -0.018750148 -0.011156456 0.0019099189 -0.03132938
000010 95 d2 06 3d ae 4f 81 bc bc 82 0b 3b 7c 29 76 3c
       0.03291567 -0.015785065 0.002128764 0.015024539
000020 5e 88 30 3d ff 20 0c bc 5a 0e 71 bc 23 51 87 3b
       0.0430988 -0.008552789 -0.014712894 0.0041295453
000030 78 46 fb bc 35 f7 d1 3c 9c 8b ba bb ad 0c 89 3c
       -0.03067325 0.025630573 -0.0056929123 0.016729677
000040 c5 78 ca bc e4 95 8a bc a6 1b c1 bc 32 a1 c6 bc
       -0.02471579 -0.016917177 -0.023572754 -0.024246786
000050 ef 70 a0 3c 98 c4 c6 3c 9a 3f 71 bc 95 84 ab bc
       0.019585101 0.024263665 -0.014724636 -0.020937243
000060 e5 f3 03 bd bd 1a 2f 3b cf d3 2a bd 83 aa 83 3c
       -0.032215018 0.0026718818 -0.041705903 0.016072517
000070 a4 ca 8c bb a5 62 f6 3c 53 b5 04 3d 62 fa 03 39
       -0.0042966176 0.030076334 0.032399487 0.00012586408

sequential/conv2d_1/Conv2D f4 [32, 3, 3, 32]
000000 f4 61 06 3e 37 4d df 3c cf cc df 3d 91 77 54 3d
       0.13123304 0.027258499 0.10927736 0.05187184
000010 a4 d8 98 bd f2 c8 45 bc c2 dc 28 bc c8 af b8 bd
       -0.07463196 -0.012071835 -0.010306539 -0.090179026
000020 56 0a 8d 3d df a5 a4 bd f2 3d 09 3d be c1 65 bd
       0.06886737 -0.0803945 0.03350634 -0.05609297
000030 b2 e7 81 bd 7c 14 ae bd 7f 7a 30 3d 91 42 50 bd
       -0.063430205 -0.08500001 0.04308557 -0.050844733
000040 d2 13 06 bd 91 5f 42 bd 5e 93 bf bc 3c 89 8e bd
       -0.032733746 -0.04745442 -0.0233857 -0.06959769
000050 96 dd c7 3c 53 f3 03 bd 38 1c 1a 3c b5 68 d0 3d
       0.024397653 -0.032214474 0.009406142 0.10176221
000060 b9 d6 0a be b3 6a c3 3d 1a 8f db bd 55 ed c0 bc
       -0.13558473 0.09541836 -0.10720654 -0.023550669
000070 7a 0f e4 3c 1e 36 db bd 52 37 93 bc e8 b6 74 bc
       0.027839411 -0.107036814 -0.017970715 -0.014936186
000080 ea 5e f0 3c 61 48 06 3e f1 08 7a 3d dd 55 09 3e
       0.029342134 0.13113548 0.061043683 0.1341166
000090 ad 90 a4 bd 4b 61 2a bd 90 6d 1f 3d df 7b 79 3d
       -0.08035407 -0.041596692 0.038922846 0.06090915
0000a0 d4 f7 be bd 30 b1 09 bb 8f 15 a7 3c f1 3e d9 3d
       -0.09324613 -0.0021010153 0.020396022 0.10607708
0000b0 1a e1 f1 bd 64 3a fb bd 7c 9c 52 3d e2 27 b8 bd
       -0.11810513 -0.122669965 0.051418766 -0.08991982
0000c0 23 71 96 3d 36 23 b0 3d b2 4b 6b 3c 61 45 e2 bd
       0.07345798 0.08600466 0.014361309 -0.11048389
0000d0 55 f2 90 3d 17 85 18 be 9a 3a 99 3d c2 1e 0e 3d
       0.07077471 -0.1489452 0.074818805 0.0346973
0000e0 a6 4d 35 be f0 dd 3e bd f2 f1 1a 3d b5 f5 14 bc
       -0.17705402 -0.046598375 0.037828393 -0.009091784
0000f0 33 ee 3c bd 0d fb 24 bd 1d dd 5b 3d 3f 7e a0 bd
       -0.046125602 -0.040278483 0.053677667 -0.078365795
000100 45 7d 05 3d 90 3e bc 3d a1 18 1d 3d 4f 50 cb 3b
       0.03259017 0.0919162 0.038353566 0.006204642
000110 47 ec 65 3d f7 86 da bd b0 e4 d9 bd b6 f7 ba 3d
       0.056133535 -0.10670274 -0.10639322 0.09129278
000120 ae b9 4f 3d 60 04 46 bb 93 81 41 3d 3d b7 fd 3d
       0.050714187 -0.003021501 0.047242712 0.123884656
000130 b9 11 a7 3d 51 61 5e 3c 4f ef 0f bd b1 b4 3f bd
       0.08157677 0.013573007 -0.03514033 -0.04680318
000140 f4 43 7c 3d 05 36 b0 3d e6 14 a0 bd c8 67 68 bd
       0.061588243 0.086040534 -0.07816486 -0.0567396
000150 02 e0 ff 3b fa a4 8b 3d 8d 85 9e 3d a6 e4 4b 3d
       0.0078086862 0.06818576 0.077403165 0.049778603
000160 8a 10 0c 3c 59 f3 8c bd ae 0a 82 3d 18 e6 25 bc
       0.008548865 -0.068823524 0.06349693 -0.010125659
000170 e9 9b 08 bd 2e 62 93 bc 51 ab e9 3d 1f 8d 84 3c
       -0.033351813 -0.017991152 0.11409629 0.016180573
000180 0e 0a 86 3a ad cf 31 3e 23 f5 71 3c 08 46 86 bd
       0.0010226385 0.17364378 0.014767918 -0.06556326
000190 ed d5 15 3c 4e e9 aa bd b2 cc 8e bd 4f 60 f0 3d
       0.009145242 -0.083452806 -0.06972636 0.117371194
0001a0 6f 9d 18 3d a7 ee a5 bd b9 38 ce 3d 1d 76 bd 3d
       0.037259515 -0.0810216 0.10069413 0.09251044
0001b0 30 d6 6e 3d 7d 80 cc 3c 29 aa 84 3c e4 2b e2 3d
       0.058309734 0.024963612 0.01619442 0.11043528
0001c0 96 62 94 3d f6 57 fd bb 6f b3 aa 3d bb ab c9 bd
       0.07245366 -0.007731433 0.083350055 -0.09847208
0001d0 7d 01 66 3e ee c6 93 3d 95 b3 ed 3d 8b 21 ea 3d
       0.22461505 0.07215677 0.11606518 0.11432179
0001e0 64 8a f7 3c d8 1e 0a be aa 61 7a 3d d4 0e ca bc
       0.030217357 -0.13488328 0.061128296 -0.024665274
0001f0 cb 48 be ba f3 ad b3 3d 25 e9 89 3d 58 77 ca 3c
       -0.0014517544 0.087734126 0.06733922 0.02471511
000200 d4 60 1d bd a9 eb d5 3d ac de 98 bd 22 10 f2 3d
       -0.03842242 0.10445339 -0.07464346 0.11819483
000210 72 7e aa 3d 44 ef 20 3d 91 d7 7d 3d 2f 81 ae bc
       0.08324899 0.03929068 0.06197316 -0.021301834
000220 45 4b 68 3d 96 1f cc bd ee 82 2f 3d 1c 15 5b bd
       0.056712408 -0.09966962 0.042849474 -0.05348693
000230 2b 88 dd bd a0 87 b8 bc 68 1f e7 3c 18 7f bb 3c
       -0.108169876 -0.022525609 0.028213218 0.022887751
000240 48 42 5b bd 33 ad ca 3b 15 1c a1 bb 85 21 93 3d
       -0.053530008 0.0061851977 -0.0049166777 0.07184128
000250 c4 80 84 3d d4 c3 e8 bd 65 6f dd bc d7 9d 87 bb
       0.064698726 -0.11365476 -0.027030656 -0.004138689
000260 44 41 bd 3d 26 08 ae 3c 66 ce f9 bc 27 33 9c 3d
       0.09240964 0.02124412 -0.030493926 0.07626944
000270 05 bc d8 bc f7 70 20 3c 8f 69 2c 3d 8b 99 99 3d
       -0.026456842 0.009792558 0.042092856 0.07499989
000280 06 1c fd 3d cf 21 26 3e 8a 5f f8 3b 8f 46 e2 3d
       0.12358861 0.16223834 0.0075797485 0.11048614
000290 e8 a8 58 3c ea 3c ae bd a9 62 04 3d f8 06 3d bd
       0.013223864 -0.08507712 0.032320652 -0.046149224
0002a0 2b b6 87 3d cd 37 18 bc 37 25 c0 bd 0e 88 ed 3d
       0.06626543 -0.009290648 -0.09382098 0.11598216
0002b0 1a ce d9 bd 87 96 1e 3e 7e e6 fe 3c dd e5 91 3d
       -0.10635014 0.15487109 0.031115767 0.07123921
0002c0 3c c6 6a bd b4 b3 a0 3d 33 01 a4 bd 3a 7a 4c 3d
       -0.057317957 0.07846776 -0.08008041 0.04992125
0002d0 3b e6 13 3e 5a 3e 81 3c 27 39 f0 3b 06 6f 32 3b
       0.14443295 0.015776802 0.007331032 0.002722682
0002e0 eb 12 cc 3d e3 88 a2 3c 0b 2e ff 3b f8 c4 aa 3d
       0.09964546 0.019840663 0.007787471 0.0833835
0002f0 98 54 0a 3d 38 a6 fc 3c 58 d3 17 bd 08 24 aa 3d
       0.03377208 0.030840978 -0.037066787 0.08307654
000300 52 9f 67 3c 9d 6b df 3d 61 3b 69 3d 68 fe bc 3b
       0.014137106 0.109091975 0.056941394 0.0057676323
000310 a5 9e 30 bd 28 5b d8 bd 3d 2a e6 3c 7b a0 6c bd
       -0.043120045 -0.10564262 0.028096313 -0.057770234
000320 1b ad 0f bc 9b 9d a0 bb fc 69 a6 3d da 64 e3 bb
       -0.008769299 -0.0049016005 0.08125684 -0.0069395127
000330 f0 4a b7 3d c8 45 bd 3d 02 2d b1 bd e1 33 4e 3b
       0.0894984 0.09241825 -0.08651163 0.0031464028
000340 a4 10 82 bd 21 fc ad bc f9 42 fc bc 3e af d4 bd
       -0.0635083 -0.021238388 -0.030793654 -0.10384987
000350 5b 36 2d 3e 44 e2 97 bc 4f e5 f1 3d 30 ed d8 bc
       0.16915266 -0.018540509 0.11811315 -0.026480287
000360 c1 59 51 bd 82 2e 96 bd b9 1a e0 3c 2d 11 c9 3d
       -0.051110987 -0.073330894 0.027356492 0.09817729
000370 1a 6d 3b 3c a0 98 2b 3d 8a 5e 04 3c 73 c2 aa 3d
       0.011439586 0.0418936 0.0080791805 0.083378695
000380 40 32 01 3c fb e0 1a 3e d2 14 08 3d 41 cc e3 bc
       0.007885516 0.15124886 0.03322298 -0.027807357
000390 4f 1b 94 3d 56 c0 1c 3d c1 eb 55 3d 7e e9 91 bd
       0.07231771 0.038269363 0.052226786 -0.07124613
0003a0 3e 5a dd bd 41 c8 e3 3c c7 ac 9d bd d0 b0 0c 3e
       -0.10808228 0.02780545 -0.0769897 0.13739324
0003b0 5c c4 b2 3a 7f d3 50 3d e6 e0 02 3d ea a4 a4 bc
       0.0013638842 0.05098295 0.03195276 -0.020098168
0003c0 11 1d a0 3c cf ca 88 bd 33 d0 18 bd 48 0a 20 bd
       0.01954511 -0.06679308 -0.03730793 -0.039072305
0003d0 fb d6 04 3e 33 59 17 be 3f 19 a4 bc d6 69 91 bd
       0.12972634 -0.1478012 -0.02003157 -0.07100265
0003e0 d0 ba 0b 3c 0c c4 0d be ce a8 88 3d 73 14 d1 3d
       0.008528426 -0.13844317 0.06672822 0.102089785
0003f0 b5 a1 9b bd c7 61 39 bc e1 1c f3 3d 9c 3a 91 3c
       -0.075992025 -0.011314816 0.118707426 0.017728142

sequential/conv2d_2/Conv2D f4 [32, 3, 3, 32]
000000 95 74 f0 3c 98 73 cc bc 24 c2 43 3e f0 10 91 3d
       0.029352466 -0.024957463 0.19117028 0.07083309
000010 21 f5 d7 bc bb 3b ba bc 62 2a a8 3d 8c 43 fc 3d
       -0.026362004 -0.02273356 0.08211209 0.12317571
000020 28 10 02 bd a5 d8 bb 3d f4 a9 9d 3d 50 fd 01 3e
       -0.03175369 0.09172181 0.076984316 0.12694287
000030 54 1d 13 3d 03 b0 52 3a d0 6a 74 be 59 07 0e bd
       0.03591664 0.0008037092 -0.2386887 -0.034674976
000040 43 3a d1 3b c1 93 b2 3d 00 dd 4f 3d 5e eb 13 3e
       0.006385119 0.08719588 0.05074787 0.14445254
000050 b3 0b 01 3e 2d 84 88 bd eb e0 19 3d b3 87 ec 3d
       0.12602119 -0.066658355 0.037568014 0.1154932
000060 e6 69 f1 3c 58 fb a0 3d e1 ca 05 3e 6a 49 8e bb
       0.029469442 0.0786044 0.13065673 -0.0043422477
000070 a1 dd 14 3c fb d8 8b bc bd 69 97 3d 92 4e e8 3d
       0.009086044 -0.017071238 0.07393215 0.11343111
000080 25 73 82 3d 95 47 4e bd 0d af 15 3c 48 64 7f bd
       0.06369618 -0.050361235 0.009135974 -0.062351495
000090 4c 9e 1b bd 55 f4 a0 3c ad 5f a3 3d a2 5d 7e bd
       -0.03799276 0.019647757 0.07977233 -0.062101014
0000a0 95 5b 1c 3d 53 1d b3 3c 3e fa 25 bb 10 91 ef 3c
       0.038173277 0.021864569 -0.0025326158 0.029243976
0000b0 e8 23 11 3c 9e 27 f3 3d 1d 51 06 be 24 ae 40 bd
       0.008858658 0.11872791 -0.1311688 -0.047041073
0000c0 8d 9d 04 3d 4a 44 df bb 30 03 18 bd cd 6a 22 3b
       0.032376815 -0.0068135606 -0.037112415 0.0024782897
0000d0 99 cd e6 3d ba 31 8c 3d 24 ab 82 3d fb cf 8a 3d
       0.112696834 0.06845422 0.06380299 0.067779504
0000e0 2b b3 08 3d 9c 21 8d bd 7b 0b 80 bc 3e 6e 33 3e
       0.033373993 -0.06891176 -0.015630474 0.17522523
0000f0 81 16 c6 3c 35 b6 80 3d a7 ec a9 3d 6e 48 db 3d
       0.024180653 0.06284753 0.08297091 0.10707174
000100 b7 f5 8d 3d 01 66 b5 bd c8 d5 1a 3e fb d3 29 3d
       0.06931632 -0.08857346 0.15120614 0.041461926
000110 a4 3d 3a bd f5 ec 0e be 5c 0b b4 3c 56 94 fb bd
       -0.04546894 -0.1395758 0.021978073 -0.12284152
000120 4e 68 2b bd 4d 08 f5 bc 20 86 51 bd 4e 7b 00 3d
       -0.04184752 -0.029911185 -0.051153302 0.031367593
000130 86 41 56 bc c9 8e 6f 3c ef 1b c7 bd d5 ad 25 bd
       -0.013077145 0.014621445 -0.09722125 -0.040448982
000140 0f 79 3a bd e1 8f 07 3d 87 64 9e 3c 25 ea 87 bb
       -0.045525607 0.033096198 0.019335045 -0.0041477853
000150 40 2f c5 bd 17 62 77 3b ff 46 c2 3c 0e 23 d1 3b
       -0.09628153 0.0037747675 0.023715494 0.0063823527
000160 b2 ed 70 3d 85 81 56 bc 94 f0 21 be b0 46 26 3b
       0.058820434 -0.013092403 -0.1581443 0.0025371723
000170 ce 18 42 3d 26 d9 b2 3b ee 00 8c bd b2 4b 92 bd
       0.047386937 0.005458015 -0.06836115 -0.07143344
000180 98 66 33 3e af a4 9f bd eb d1 4b 3e 61 34 aa bc
       0.17519605 -0.07795083 0.19904296 -0.02077693
000190 e5 21 88 bd b5 f6 cf bd 63 fd a6 3d eb 86 31 3d
       -0.0664709 -0.101544775 0.081537984 0.04334156
0001a0 dd ea 81 ba af ad b2 3d d8 69 b8 3b e7 ac 9c 3d
       -0.0009911914 0.08724534 0.005627852 0.07650166
0001b0 ff 90 4b 3d 07 b4 d0 3b 03 31 30 be 0f 94 10 be
       0.049698826 0.006369117 -0.17206196 -0.1411898
0001c0 50 fc 0b 3c ac f7 0a 3e e7 08 e0 3d 54 da 6d bd
       0.008544043 0.13571042 0.10939198 -0.058069542
0001d0 5f b1 7f 3d 26 b8 ad 3d 03 a7 a2 3d a2 cc 13 3c
       0.062425014 0.08482389 0.07942011 0.009020956
0001e0 9f 68 3c bd 88 c6 bd 3d f6 a0 84 3d f1 da 8b 3d
       -0.045998212 0.092663825 0.06476013 0.06828869
0001f0 e1 8f cc 3b 5e 8e a4 3d ef b2 17 bd 59 bc 75 bd
       0.0062427376 0.08034967 -0.03703588 -0.059994075
000200 69 2c af 3b f5 43 dd 3d 6a 35 12 bd d0 57 43 bd
       0.0053458703 0.108039774 -0.03569547 -0.047691166
000210 c6 61 28 3a bd 1e 86 bb cc 2c a2 bd 90 30 08 3d
       0.0006423261 -0.0040930198 -0.079187006 0.033249438
000220 de 6a 77 bd af 4c 7d 3c 57 c0 c7 3d 71 49 b4 3c
       -0.06040465 0.015460177 0.09753483 0.022007676
000230 8c 17 8d bd 8d f9 e9 3d d3 b6 e9 bc 64 8b b3 3b
       -0.06889257 0.11424551 -0.02852956 0.005479263
000240 36 9d 94 3d c7 17 a2 3d a9 9c 66 bd 63 de 99 bd
       0.07256548 0.079146914 -0.056301747 -0.0751312
000250 30 8f 9d bd bc 14 8f bd 7d 5a 85 3d 5a 64 95 bd
       -0.076933265 -0.06986377 0.065114 -0.07294531
000260 d9 a8 4d bd dd 57 c9 bd ba ea 4e 3d 1e f5 ed 3c
       -0.050209854 -0.09831212 0.05051682 0.029047545
000270 c8 a7 0a 3a 7f fa 09 3e 10 70 f2 3d c5 b4 0b 3e
       0.00052892836 0.13474463 0.118377805 0.13643177
000280 f1 b4 84 3d 06 8d 81 bd 7b 7b 1b 3e 4c 22 c1 bd
       0.06479824 -0.06325726 0.15183823 -0.0943037
000290 dc cf 20 3d ad e7 8d bd 8f 78 86 3d 54 0c 18 bd
       0.03926073 -0.06928954 0.065659635 -0.037121132
0002a0 c3 ac e5 3c 1c 0a d9 bd 2b f6 3f bd 54 0a 39 bd
       0.02803648 -0.10597631 -0.046865623 -0.045175865
0002b0 2d 54 10 bd 69 1e 04 3e 8f ad 2f be 60 89 ea bd
       -0.035236526 0.12902226 -0.17156051 -0.114519835
0002c0 2b 17 24 3c 28 d1 2c 3b cb db 8c bb ff bb ef bc
       0.010015289 0.0026369784 -0.0042986623 -0.029264448
0002d0 d6 6b 82 bd 8b 53 89 3d 03 90 8b 3d 74 26 01 bd
       -0.06368224 0.06705388 0.068145774 -0.031530812
0002e0 33 86 4b bd e0 f6 59 bc 20 5e b4 3c ad dd ba 3c
       -0.04968853 -0.0133034885 0.022017539 0.022810781
0002f0 93 a1 79 3d 00 fc 2d 3d 0f a4 73 3d 6e 01 c0 bd
       0.060945105 0.042476654 0.05948263 -0.09375273
000300 1f 31 05 3e a9 ec 86 bd 84 55 45 3e b8 48 7d bb
       0.1300702 -0.06588108 0.19270903 -0.003864808
000310 d1 1c 02 3b f5 6c 88 bd 48 fc e3 bd 0d bf 5a 3d
       0.0019853602 -0.06661407 -0.11132103 0.053404856
000320 e1 29 ef bd ae 97 fb 3d de 10 21 3e c0 b4 17 3e
       -0.1167791 0.1228479 0.1572909 0.14815044
000330 d2 b8 e9 3d 21 a2 5c 3d 85 c7 30 be 30 46 26 be
       0.11412205 0.053865556 -0.1726361 -0.16237712
000340 36 7a 04 bc 16 e6 cb 3c 9b 01 0f 3e 04 2f 99 3c
       -0.008085778 0.024889987 0.13965456 0.018699177
000350 ff 28 57 bc 2e 81 ec 3c e0 c8 60 bd ff c1 ab bb
       -0.013132333 0.028870191 -0.05487907 -0.005241632
000360 7a 50 2a bd a9 46 cb 3c b6 ff df bd c7 b0 83 bb
       -0.041580655 0.024813967 -0.10937445 -0.0040188762
000370 c1 1b 8c bd 20 9d d9 3d fb 1f 05 3e 45 a6 e0 bc
       -0.06841231 0.10625672 0.13000481 -0.027423033
000380 32 18 c8 3d d6 4b 3a bd c9 4c 4b 3c 69 a9 85 3d
       0.0977024 -0.04548248 0.012408444 0.06526453
000390 e8 b0 45 3d ac c9 f5 bd ff 4f 75 3d 99 df 09 3d
       0.048264414 -0.120013565 0.059890743 0.033660505
0003a0 de c4 3f bc 38 19 85 3d 47 6d 5f bd dd 19 8f 3d
       -0.011704652 0.06498951 -0.054547574 0.06987355
0003b0 04 ae a5 bd 9b dc 8e bd 18 7b e4 bd 04 f7 b3 bd
       -0.080898315 -0.06975671 -0.11156291 -0.08787349
0003c0 59 28 69 3c a7 8b 08 bd 07 09 14 bc c0 90 82 3d
       0.014230811 -0.033336308 -0.009035355 0.06375265
0003d0 b6 b0 3b bc de 79 88 bd c9 95 4d bd c8 1f 76 3d
       -0.011455705 -0.06663869 -0.050191674 0.060088903
0003e0 92 ba 4d bd cf 34 bf 3d 28 45 48 3d b4 39 c3 3c
       -0.050226755 0.09336244 0.048894078 0.023831226
0003f0 92 a6 89 3d b4 ab a4 3d 80 14 8d 3d 2a f0 49 bd
       0.06721224 0.08040562 0.06888676 -0.049301304

sequential/dense/BiasAdd/ReadVariableOp f4 [128]
000000 54 47 98 bc 07 41 aa 3c c8 38 0b bd 1c 52 00 3c
       -0.0185887 0.02078296 -0.033989698 0.007832076
000010 21 1f 10 bd 67 5e 2c 3d 64 6c 17 bc 0e df b5 bb
       -0.035185937 0.042082217 -0.009242151 -0.005550272
000020 ba d4 96 bc d4 3c 03 bc ab 9d 2b bd 41 7e 13 bd
       -0.018411983 -0.008010108 -0.04189841 -0.036009077
000030 37 01 0f bd 1a a0 bb 3c 4e 4f f5 bb c4 de f8 bb
       -0.034913268 0.02290349 -0.0074862605 -0.007594915
000040 45 38 de bb 64 0f 40 bd 9c 3e 20 3c be 0e 5f 3b
       -0.00678161 -0.046889678 0.009780552 0.0034035887
000050 5d c5 c4 bb 5b bc ce 3c 87 fb 09 bc aa 0a 2c 3c
       -0.006004973 0.0252363 -0.008421785 0.010500589
000060 17 c8 ba bb 1e 2f f0 3a cc 04 78 3d 94 f7 22 bd
       -0.005700122 0.0018324589 0.06055145 -0.03978689
000070 15 84 1a bd 01 45 b8 3c a9 94 2b 3d 37 94 75 3d
       -0.03772362 0.022493841 0.04188982 0.0599558
000080 07 4b 8f 3c ca 95 50 bd 0f 6b 86 bb 8a 1a 4d 3d
       0.01749183 -0.0509241 -0.004102118 0.050074138
000090 0d ac 07 bd 21 bc 33 3d ff 58 40 3c c1 51 00 bd
       -0.033123065 0.043880586 0.011739968 -0.031327967
0000a0 30 a2 20 bd 5d 0f d2 3b 8b 03 29 3d 0a 7f 26 bc
       -0.039217174 0.006410523 0.041263144 -0.010162124
0000b0 58 a5 81 3a 7a 45 94 bb 40 e3 13 3d 78 55 bc 3c
       0.0009891195 -0.004524884 0.036105394 0.022989973
0000c0 00 00 00 00 ca 17 7f 3d ba 7e ad bb 55 b7 46 bc
       0.0 0.062278546 -0.005294648 -0.012128671
0000d0 37 6b e1 bb a9 7e 84 bd f6 99 07 bd 10 09 33 bd
       -0.006879236 -0.06469471 -0.033105813 -0.043709815
0000e0 60 51 51 bc 4c 76 cd 3c 1e 7a 8c 3c 18 49 92 bc
       -0.012775749 0.025080822 0.017148074 -0.01785712
0000f0 0e a7 c4 bb 1a 34 a0 bc c9 0a 24 bc 9a a1 1b 3c
       -0.00600136 -0.019556094 -0.010012337 0.009498978
000100 29 3b 59 bd bc c2 3f 3d 2b c0 4c 3d d8 84 51 3d
       -0.053034935 0.046816573 0.049987953 0.05115208
000110 c0 4c 30 3b ec a9 8b 3b 24 47 88 bb 47 40 e7 bb
       0.0026901215 0.0042621996 -0.0041588712 -0.007057223
000120 46 e9 f1 bc 8f d0 2e 3d d0 f9 87 bc e9 c6 ea bb
       -0.029530179 0.042679366 -0.016598612 -0.007164825
000130 94 ed 1f 3d 2d cb b6 bc dd f8 a9 3c bc 6e 68 3d
       0.03904493 -0.022313679 0.02074855 0.05674623
000140 38 3f 0d bd 5f e2 8a bc f8 9e 20 3d 7a 3b fd bb
       -0.03448412 -0.016953645 0.039214104 -0.0077280374
000150 a4 b0 c4 bb 1d 54 39 bb ea 6d eb bc e8 7e f3 bc
       -0.0060025025 -0.0028278895 -0.028738935 -0.0297236
000160 d7 0b 4d bc f6 8a aa 3b 59 84 24 bd 5a d6 30 bc
       -0.01251503 0.0052045537 -0.04016528 -0.010793293
000170 81 1f 19 bd 9a e8 8b 3b 93 18 b6 bb 58 59 8d 3c
       -0.03738356 0.0042696716 -0.0055571287 0.017254516
000180 d2 d4 5c bc 44 01 ce 3c dc 35 3e bd 63 27 97 bc
       -0.013478475 0.025147088 -0.046438083 -0.018451398
000190 16 d1 36 bc d7 c1 3e bd 37 d7 3d 3b f7 2b 09 bd
       -0.011158248 -0.04657158 0.002896739 -0.033489194
0001a0 23 51 42 bc 65 0c 94 3c 55 98 22 3c 7a 7a 2b 3c
       -0.011860165 0.018072316 0.009924014 0.010466212
0001b0 32 2e 4f 3d 8c 8d 6a 3d f2 6f 96 ba 9f a3 7b bb
       0.050581165 0.057263896 -0.0011477454 -0.0038397086
0001c0 c7 09 8c bc 00 00 00 00 6b 3c 06 3d c7 dd e2 bc
       -0.017094506 0.0 0.032772463 -0.027693642
0001d0 43 9a 56 bc f5 51 8b bc 01 62 09 3d 37 61 7e bc
       -0.013098302 -0.017006854 0.03354073 -0.0155261075
0001e0 12 7f 0b 3d 05 75 4d 3d 65 eb e7 3c de b6 9f bb
       0.03405673 0.050160427 0.028310487 -0.0048740944
0001f0 22 8e ab 3c b6 7b 95 bb 0d 71 14 3d df 76 26 3d
       0.020941798 -0.0045618666 0.036240626 0.040640708

sequential/dense_1/BiasAdd/ReadVariableOp f4 [3]
000000 8e 26 c9 bc 3c 26 28 3d 74 6d 78 bc
       -0.024554517 0.04105209 -0.015162814

sequential/dense/MatMul f4 [128, 128]
000000 90 51 89 3d c8 17 06 3e 4e 85 90 3d 7d ad 93 3d
       0.0670501 0.1309501 0.07056676 0.07210825
000010 df 3a 2f be 50 5a f8 bd 9c 70 22 be 40 f9 4d 3d
       -0.17112301 -0.12126601 -0.1586327 0.05028653
000020 92 3b ca bd 80 18 ef 3b b1 a8 21 be e6 07 04 bd
       -0.098746434 0.007296622 -0.15787007 -0.032234095
000030 76 49 32 3c d6 ff 33 3d 90 19 1d bc 8b 35 81 3d
       0.010881772 0.043945156 -0.009588614 0.06309041
000040 ef 3b 48 3c 60 92 a7 bd 3c 64 c0 3c 28 77 6a bd
       0.0122213205 -0.08182216 0.023485295 -0.057242543
000050 5e 24 9b bd 29 62 f5 3d 2e 24 b4 bd 6e b5 c9 3d
       -0.07575296 0.11981613 -0.08795963 0.09849058
000060 67 cd 94 bc 85 28 9f bc 13 9f 10 3e f2 da 82 bd
       -0.01816435 -0.0194285 0.14123182 -0.06389417
000070 ea 49 bd bd b6 9a e9 3d 88 a0 b7 bd 3f 62 21 be
       -0.092426136 0.11406462 -0.08966166 -0.15760134
000080 6b 97 17 3c ce 30 f2 bd c5 8f eb 3d fc 2c c5 3d
       0.009252409 -0.11825715 0.11502031 0.09627721
000090 28 1b ec 3c 31 de 14 be cf c1 b5 3d a6 42 0b 3e
       0.028821543 -0.14537884 0.08874857 0.13599643
0000a0 37 9b 0d be 58 50 5f 3d 98 dd 8d 3d 63 48 24 be
       -0.13828741 0.05451998 0.06927031 -0.16043238
0000b0 dc c4 38 3d 5b 8f ce 3b c0 5b 01 3c 6c 99 23 be
       0.045109615 0.0063037104 0.00789541 -0.15976495
0000c0 39 93 c0 3c 1e 70 0f 3d c2 55 04 be e9 ab 27 3d
       0.023507701 0.035019033 -0.12923339 0.04093543
0000d0 dc e9 08 3c 80 f4 0a be ac 36 2e 3d c0 c6 cd bb
       0.008356538 -0.13569832 0.042532608 -0.0062797964
0000e0 55 55 c7 bd 29 2d 9b 3c 78 b5 0f be bb 34 c1 bd
       -0.09733073 0.018942432 -0.14034069 -0.09433886
0000f0 5f 9f 08 be ff 2d 0d bd be 44 f8 3c 0d 40 26 be
       -0.13342045 -0.034467693 0.030306216 -0.16235371
000100 2f 3f 1d be 7b 08 cb 3d 7f c9 0e 3d 1e 0b 63 3c
       -0.15356134 0.09913727 0.03486013 0.013857631
000110 17 49 1b be d4 b1 1c be 37 9b 0c bd ca a1 c4 bd
       -0.151646 -0.15302211 -0.034327712 -0.09601171
000120 a7 10 57 3d e2 2e a3 3d 05 06 00 be ea a6 ed bc
       0.052506115 0.079679266 -0.12502296 -0.029010255
000130 de 24 0c 3e 35 64 11 3d c1 7d 11 3e 7f f1 1b 3d
       0.13685939 0.035495955 0.14208128 0.038072105
000140 e0 bc 15 be 46 88 dd 3d 97 15 43 bd 19 73 90 3b
       -0.14622831 0.10817008 -0.04762801 0.004408252
000150 f9 d3 a7 3d fc 15 1b bd 7c 03 44 bd 2d b4 ac bd
       0.081947275 -0.037862763 -0.047854885 -0.08432803
000160 e5 97 8d 3d f0 3d fe 3d 4d fb 17 3d 26 02 36 bd
       0.06913737 0.124141574 0.037104893 -0.044435643
000170 ce 8c 25 be b3 47 91 3d fa e8 cb 3d 59 fd 96 bd
       -0.16166994 0.07093754 0.09956546 -0.07372541
000180 f7 57 de bd bd ae 8a 3d 5e c2 87 bd 8e d4 6e 3a
       -0.10856622 0.0677161 -0.066288695 0.00091106526
000190 a0 18 87 bc 42 3a 3b bc f1 ac 3a bd 3c fb 8e 3c
       -0.016491234 -0.011427464 -0.045575086 0.017453782
0001a0 a6 5d eb bb e1 e6 1b be ca a6 ef 3d 8d 28 bd 3d
       -0.0071827946 -0.15224792 0.11701734 0.0923625
0001b0 d1 d7 e5 bc 33 d1 13 be e0 05 23 3d 46 c7 2e 3d
       -0.02805701 -0.14435272 0.039800525 0.04267051
0001c0 d0 56 be 3d 5e fb f0 3d b4 ec 09 be 71 54 9d bd
       0.09293902 0.117666945 -0.13469201 -0.076821215
0001d0 8c 33 02 be fa f7 b6 3d a0 0e 81 bd 98 0e 88 3c
       -0.12714976 0.089340165 -0.063016176 0.016608521
0001e0 de f0 36 bd 68 7a d6 bd 4d cb 8f 3d b3 40 a9 bd
       -0.044663303 -0.10472566 0.070211984 -0.082642935
0001f0 73 4e 58 3d 86 9c 9a 3d f5 da c2 3d 72 d4 4d 3d
       0.05280919 0.07549386 0.09514419 0.05025143
000200 a6 37 8a 3c 27 ac 43 3d 65 ff ee 3d 4f 9b a6 3b
       0.016872238 0.0477716 0.116698064 0.005084432
000210 33 81 44 bd f4 e1 e1 bc a3 ba 0d 3d 09 9d f2 3d
       -0.047974776 -0.027573563 0.03460182 0.11846358
000220 30 48 9f 3d 52 a4 b2 3d aa 21 89 ba f6 1f 1c 3e
       0.077774405 0.08722748 -0.0010462303 0.15246567
000230 b6 45 b4 bd 89 b5 83 3e 80 d1 c5 3d 38 cb 02 be
       -0.08802359 0.25724438 0.096590996 -0.12772834
000240 33 b8 00 be 39 28 21 be 24 7d 8c bd 81 9f f2 bd
       -0.12570266 -0.15738 -0.06859806 -0.11846829
000250 e3 15 18 be c7 cb 66 bc d4 c8 00 3d b3 d4 0c bd
       -0.14852099 -0.01408667 0.031441525 -0.034382533
000260 e9 60 b3 3d 5a 0e db bd 08 bc ab bc 4a 34 0f be
       0.087587185 -0.10696097 -0.020963684 -0.1398479
000270 f0 7e a0 bd 86 fe 83 bd 43 b7 4d 3d 66 6a 8d 3d
       -0.078367114 -0.06445031 0.0502236 0.069050595
000280 41 0b 21 3e 0d 74 3e be 76 2e 08 be f1 c0 03 bd
       0.1572695 -0.18598957 -0.13298973 -0.032166425
000290 25 f4 48 3d e4 59 0d 3e b2 12 1a 3c 94 66 bb bd
       0.04906096 0.13803822 0.009403871 -0.091504246
0002a0 e5 14 da bd c7 b6 51 bd 1c 15 b7 3d 7f 73 2d 3e
       -0.106485166 -0.0511997 0.08939573 0.1693859
0002b0 ef 27 79 3d ba b8 6f 3d ee f5 ad 3d 14 a4 a6 bd
       0.0608291 0.05852578 0.08494173 -0.08136764
0002c0 39 18 6b bd d9 48 7b bd c9 54 74 bd 4c 7c fe bd
       -0.057396147 -0.06134877 -0.05965117 -0.124260515
0002d0 1e 5f 9c 3c e0 8d 7b 3b 00 da be 39 f3 48 05 bd
       0.019088324 0.0038384125 0.00036402047 -0.032540273
0002e0 5b a2 44 bd 6b 14 d3 ba a2 fe 3c 3d 73 ff 0a 3d
       -0.048006397 -0.0016104107 0.046141274 0.03393502
0002f0 4c a9 0a bb 6c dc 25 3d 67 b1 82 bd f9 69 f4 bd
       -0.0021158038 0.040493414 -0.06381493 -0.11934275
000300 e0 a5 a6 3d 70 95 b8 bd 09 78 06 be 3b c2 93 3d
       0.08137107 -0.09012878 -0.13131727 0.07214781
000310 33 16 cc bd a0 31 ee bd ca 11 af bd bb 7b 89 3d
       -0.09965172 -0.11630559 -0.08548315 0.06713053
000320 30 87 79 bd fa 44 8e bd df aa 5c 3c 9e 30 05 3d
       -0.06091994 -0.0694675 0.013468473 0.032517068
000330 ec 19 cd bb 03 7b 81 3e 54 3a 31 bd ff df 44 be
       -0.0062591936 0.25289163 -0.043268517 -0.19226073
000340 74 0f 16 be 52 ff 6b be bb dd 91 bd 33 b0 b1 3d
       -0.14654332 -0.23046616 -0.0712237 0.086761855
000350 d0 d9 54 bd f9 6a 69 3d 3c 8d 0b be 85 18 01 bd
       -0.051965535 0.056986783 -0.13628095 -0.031517524
000360 59 ed 8d bd e6 c6 de bd fb 80 aa 3d c3 f2 37 be
       -0.06930036 -0.108777806 0.08325382 -0.179637
000370 d5 08 29 bd 1d a8 0c be d6 f5 5c bd 29 ee 83 bc
       -0.04126819 -0.13736005 -0.053945385 -0.016104775
000380 77 e5 ed 3d c1 04 6d bc 5b cc 07 be 14 e3 24 3e
       0.116160326 -0.014466465 -0.13261549 0.16102248
000390 77 6b 8c bd fc 68 d1 3b cc d8 2f bb ef fb d2 3d
       -0.06856435 0.006390689 -0.0026832102 0.10301959
0003a0 64 b5 e8 bd 06 a3 f0 3d 16 12 f3 bd ba 75 9f 3c
       -0.113627225 0.11749844 -0.11868684 0.019465316
0003b0 1f ef 20 bd a2 9a 48 3d ad f2 0c be 6d f9 ff bc
       -0.039290544 0.048975594 -0.13764448 -0.031246865
0003c0 9f 11 06 bd 31 fe ef bd 17 28 f8 bc 56 6d 08 be
       -0.03273165 -0.11718405 -0.030292554 -0.13322958
0003d0 00 7e ba bd 37 74 a3 bd 6f f8 15 3d 5a 2b e1 3b
       -0.09106064 -0.079811506 0.036613878 0.006871623
0003e0 a2 30 5d be 9f e7 f8 bc ee 02 23 3d d8 ac 26 be
       -0.21600583 -0.030383883 0.039797716 -0.16276872
0003f0 87 c5 dd 3d 46 ec 0f 3e b0 44 dd 3d 7a c3 3c 3d
       0.10828691 0.14054975 0.10804117 0.04608486

sequential/dense_1/MatMul f4 [3, 128]
000000 6d 55 dc 3d 08 c6 0b 3c a7 85 69 3e 14 d3 f7 3d
       0.10758481 0.008531101 0.2280489 0.12100807
000010 6e ec af 3e 16 0a 83 3d 44 c6 18 be f3 34 cf 3d
       0.3436007 0.06398408 -0.14919382 0.10117521
000020 e1 6a 50 3d 6a 86 23 be ba 27 3d 3e 9f 1a 77 3e
       0.050883178 -0.15969244 0.18472186 0.24131249
000030 39 02 8c 3d 6c 94 78 3d 65 45 18 3e 06 fe a4 bd
       0.068363614 0.06068842 0.14870222 -0.080562636
000040 70 bb c6 3c 58 58 83 3e 3e 50 02 be 33 ce 7e 3e
       0.024259299 0.25653338 -0.12725922 0.24883346
000050 f4 28 37 be fc ae 29 3d af f6 33 be fe 7c 4f 3e
       -0.17886716 0.041426644 -0.17574571 0.20262524
000060 ca 95 45 bd 0a 23 93 be 0c 51 80 be 36 94 83 3d
       -0.048238553 -0.2873767 -0.25061834 0.06424753
000070 f2 23 4a 3d f2 67 01 3e a7 96 21 be 61 99 23 bb
       0.049350686 0.12637308 -0.15780126 -0.0024963247
000080 ee 68 0f be 75 95 e8 3d 82 0e bd 3d ce 3c 05 be
       -0.14004871 0.11356632 0.09231283 -0.13011476
000090 62 39 02 be 6b cf a4 bc ef 4e 4d be e9 59 35 3e
       -0.12717202 -0.020118436 -0.20049642 0.17710079
0000a0 84 99 20 3e 21 58 e8 bd db ba 99 bc b2 cc 34 3e
       0.15683562 -0.11344934 -0.018765857 0.1765621
0000b0 b1 ce 0f 3e a7 d7 45 be f3 01 d0 3d 8e 85 e9 3d
       0.1404369 -0.19320546 0.10156622 0.11402427
0000c0 c6 b4 c5 3d d9 47 8e 3d 48 fa 6c 3e 17 ff 32 be
       0.096536204 0.069472976 0.2314235 -0.17480122
0000d0 e2 93 d0 bd 97 5c b6 bd f9 8f e3 3d a1 c0 85 3d
       -0.101844564 -0.08904379 0.11111445 0.06530882
0000e0 71 29 2f 3e fd 8c 97 3b d1 03 50 3d e1 78 87 3e
       0.17105652 0.0046249614 0.05078489 0.2645941
0000f0 28 e5 1d bd b7 fb 28 3e 1b 84 5e bd c5 23 82 3e
       -0.03854862 0.16502272 -0.054325204 0.25417915
000100 69 0b 1e bc 8d 7c 44 bd 6c 40 08 bd 23 d4 d3 bd
       -0.009646275 -0.047970343 -0.033264562 -0.10343196
000110 5b e5 e0 3d 04 ae c3 3c 7a 95 09 3e 20 af 51 be
       0.10981246 0.023886688 0.13435927 -0.20476961
000120 4b 56 89 bd 09 f6 88 be 72 0e 12 be a6 eb 33 be
       -0.06705912 -0.2675021 -0.14263323 -0.17570361
000130 0e 8a 45 3d 58 43 d7 bd 03 e7 4b 3e 12 c5 af bd
       0.048227362 -0.10510892 0.19912343 -0.0858251
000140 e6 e6 6d 3d 76 2a 9a bc 89 d3 05 bc a8 71 27 3d
       0.05808153 -0.018819075 -0.00816811 0.040879875
000150 6a 66 7d bd 04 8a c8 3c da ac 2b 3d 98 5d 80 3c
       -0.061865248 0.024479873 0.04191289 0.015669629
000160 bd e8 03 3e bd 23 25 be f8 1b af 3e 16 8f 4f 3e
       0.12881751 -0.16126914 0.34201026 0.20269427
000170 8e 99 0a 3e 25 da 84 be d7 36 46 be 46 af 0b bd
       0.13535139 -0.2594768 -0.19356857 -0.0341027
000180 84 3b 04 be 66 7d 9a be af b7 0e be 8c 20 2c bd
       -0.12913328 -0.30173796 -0.13937257 -0.042023227
000190 a1 7e 5a 3e 5c 71 98 3d 41 23 81 be e4 bf ef 3d
       0.21337368 0.074434966 -0.2522221 0.11706522
0001a0 df a3 cb 3b d6 00 bf bd 19 78 42 3e 83 6b a6 3d
       0.0062146033 -0.09326331 0.18991126 0.08125975
0001b0 51 75 f2 bd b2 2b 71 3c 3c 9a f6 bc 2f 2c 3a 3e
       -0.118387826 0.01471989 -0.030102842 0.18180917
0001c0 ec e1 4f 3e 02 38 8c bd 9b c5 6f be a0 0d 33 3e
       0.20301026 -0.0684662 -0.23415224 0.17485666
0001d0 6c e7 1e 3d 0b 15 ce 3d 93 5d 74 be e5 4e 3b 3e
       0.03879492 0.100626074 -0.2386382 0.18291815
0001e0 83 53 41 be bc 2b 68 be 2d 1e 33 be c2 d7 b7 bd
       -0.18879513 -0.22672933 -0.1749198 -0.089766994
0001f0 db 0e 43 3e de 4c 22 be e8 9a 80 be 30 ee 4e be
       0.19048636 -0.15849635 -0.25118184 -0.20208049
000200 be 7b 29 be a2 40 01 be 90 cd 01 be 07 f9 21 bd
       -0.1655111 -0.12622312 -0.12676072 -0.03954413
000210 c6 5e b6 bd 05 d3 36 3e 5c 91 06 bc 26 a5 8a bd
       -0.08904795 0.17853935 -0.008213367 -0.06769781
000220 05 5e 04 be 8d 82 0d be 7e 6b 51 bc 36 17 55 be
       -0.1292649 -0.13819332 -0.012781976 -0.20809636
000230 e6 99 fc bc 82 1f 9e 3d fa f9 cb bd 57 6a 98 3d
       -0.030835103 0.077208534 -0.099597886 0.07442158
000240 ba 5f 55 be 4a b8 d1 bd cf c8 2a 3d 6c 76 04 3c
       -0.20837298 -0.102402285 0.041695412 0.008084875
000250 91 72 cd 3d 70 18 4d 3e f8 11 16 3e 6e 93 39 3e
       0.100316174 0.20028853 0.14655292 0.18122646
000260 81 3e c5 bd 28 76 ae bd 1c fe 1f 3d 42 78 74 bd
       -0.09631062 -0.0851863 0.039060697 -0.059685
000270 bf 52 8c bd 83 97 05 3e 08 8f 4f 3e 5d 3e 83 3e
       -0.0685172 0.13046078 0.20269406 0.25633517
000280 65 cb 92 3d 40 ec 80 be 79 73 41 be a4 da 6d 3e
       0.07167701 -0.25180244 -0.18891706 0.23227936
000290 6a 1c 6a be 54 f0 40 3e 13 65 9c bb 8b 0b 86 3d
       -0.22862402 0.18841678 -0.004772791 0.065451704
0002a0 c4 5f 6f bb a7 75 78 3d b0 da 47 3e ae eb 39 be
       -0.0036525587 0.060659077 0.19517016 -0.18156311
0002b0 9a 4d 7d be 59 e6 cc 3d 8d 90 54 3e fc 43 e3 3d
       -0.24736634 0.10004873 0.20758267 0.11096951
0002c0 38 ab c7 bd 75 64 51 3e 11 c3 77 be af 80 c0 bc
       -0.09749454 0.20448478 -0.24195506 -0.023498861
0002d0 b0 3a 59 bc 9b 44 5e be d1 0b ce bd 69 d1 1f be
       -0.013258621 -0.21705858 -0.100608476 -0.15607227
0002e0 55 ff 0e 3d 5a 14 72 bd 10 29 91 bd f3 37 d8 bd
       0.034911472 -0.05910144 -0.0708791 -0.105575465
0002f0 6a b4 cd bd 43 61 f8 bd 11 4c 34 be de 9f 2c 3e
       -0.10044177 -0.12127926 -0.17607142 0.1685786
000300 6f f8 69 be ef 23 35 3e 05 2f 44 3d bd 3b e8 3d
       -0.22848676 0.17689489 0.047896404 0.11339519
000310 50 a3 03 3e 3e d3 a4 bd c7 6c ee 3c 63 f4 25 be
       0.12855268 -0.08048104 0.029104603 -0.16206507
000320 ca ff 26 be 05 af 04 3d f5 34 2d be af 1c 43 3e
       -0.16308513 0.032393474 -0.16914733 0.1905391
000330 fa ee 64 3e fb 6f 80 be a7 4b 53 3e 2a e7 3b 3e
       0.22356787 -0.25085434 0.20634328 0.18349901
000340 22 3e 92 bd c6 70 ab 3a f5 6d 07 3e 6a 3a ef bd
       -0.07140757 0.0013079874 0.13225539 -0.116810635
000350 b2 22 4c 3e 4b bf ff bd 93 09 dc bd 8b 92 44 be
       0.1993511 -0.12487658 -0.10744014 -0.19196527
000360 42 fa de bd 83 d1 ba 3d 2b d0 b3 bd c8 ff b8 bd
       -0.10887577 0.091219924 -0.08779939 -0.090331614
000370 2a a0 14 be 24 d4 ac 3d dd 8f b6 bd a3 64 13 3e
       -0.14514223 0.084389 -0.089141585 0.14393859
000380 40 47 06 bd ec 83 ea 3d b7 89 97 be 9c 50 04 be
       -0.032782793 0.11450943 -0.29597256 -0.12921375
000390 35 29 3b bd 5d b6 5c be 23 de e2 bd d2 49 16 be
       -0.045693595 -0.21553941 -0.110775255 -0.14676598
0003a0 c0 f3 87 bd 20 e5 a8 3d 1f 3c 3a bd 27 b5 73 3e
       -0.066382885 0.08246827 -0.045467492 0.23799573
0003b0 51 1f 16 3d b6 fe 14 3e c8 83 5a be 3d 7d d7 ba
       0.03665096 0.1455029 -0.21339333 -0.0016440522
0003c0 99 90 0d be 1a 1a 4b be de 6a 76 3e ad 36 39 be
       -0.13824691 -0.19834176 0.24064204 -0.18087263
0003d0 73 ba 27 be 29 84 d3 3d 93 ca fc 3d 04 a9 79 be
       -0.16379718 0.10327942 0.123433255 -0.2438088
0003e0 43 5b 7e 3e 9d 2b f1 bb 50 55 2d 3e 9c e2 77 bd
       0.24839501 -0.0073599354 0.16927075 -0.060518846
0003f0 4d a3 f3 3d bf aa fd bd 0c c6 c4 3d 26 f4 6e 3e
       0.118963815 -0.12386083 0.09608087 0.23335323
